HuggingFace_Space/app/model_weights/model-weights.pt (torch, 841618 bytes, 52 tensors)

linear.weight f4 [128, 33]
000000 df 2c 80 3d d4 87 a1 bd 18 bd d3 3d 78 70 21 be
       0.062585585 -0.07887235 0.10338801 -0.1576556
000010 07 b6 0f be d7 4e 3b bd 05 99 c6 3d 4b 47 01 be
       -0.14034282 -0.045729484 0.09697155 -0.12624852
000020 e0 a9 59 bd fb 13 e9 bd d7 31 af be 1b 3a a8 3d
       -0.05314052 -0.11380764 -0.34217712 0.08214208
000030 6e 47 2d 3d 77 df 7b bd b8 d7 0b 3d 56 07 c3 bd
       0.04230445 -0.06149241 0.034141272 -0.095228836
000040 fe 90 51 3c 8f 1f 83 3d b5 3b 83 3d 96 00 81 3d
       0.0127909165 0.06402504 0.064078726 0.0629894
000050 67 ff 04 3d 48 37 fd 3d 76 d5 af 3c f3 c8 e6 bd
       0.032470133 0.1236406 0.02146409 -0.11268797
000060 96 ee 33 bd da d1 ae bd 66 9a 69 3c 65 6a 53 bc
       -0.043928705 -0.0853612 0.014258003 -0.012903784
000070 6a 70 84 3d 9b 8b 98 ba 2f 49 87 3b 06 15 07 bc
       0.06466754 -0.0011638285 0.004128597 -0.0082447585
000080 65 df c1 bd d4 40 cd bd 4c 13 61 3d 6e e9 04 be
       -0.09466437 -0.100221306 0.054950044 -0.12979671
000090 a8 54 17 be 10 74 81 3d 50 b2 1d 3e 22 7e 98 bd
       -0.14778388 0.06320965 0.15400052 -0.07445933
0000a0 de a0 04 be 09 22 1b be 67 87 53 bd 40 09 aa be
       -0.12951991 -0.15149702 -0.0516428 -0.33210182
0000b0 88 a2 38 3e b3 2d e0 bd 6b d8 ad 3d cf d4 b1 bc
       0.18030751 -0.109462164 0.08488544 -0.02170792
0000c0 f1 11 20 3d 9b 66 84 3d eb 8b c8 bd ff c4 ba bc
       0.03907961 0.06464883 -0.09792312 -0.022799013
0000d0 b1 70 fc 3d c6 5e b1 bc e3 5f ab 3d 6f 59 96 3d
       0.12326182 -0.021651637 0.08367898 0.07341277
0000e0 bb 96 3f 3c 93 0d 0d be 23 91 28 3e c8 df d4 3d
       0.011693652 -0.1377471 0.16461615 0.103942454
0000f0 c2 3e 4f bd 22 f8 bb bd 54 a2 15 3e eb d5 54 bd
       -0.05059696 -0.09178187 0.14612705 -0.05196182
000100 3a 66 d9 3d e7 9b c0 bc 2b 4f 56 3d 67 be 0b 3e
       0.10615201 -0.02351184 0.052321594 0.13646851
000110 1b 43 f8 bd a9 88 f5 3d 08 56 b4 bd 17 f4 b0 bc
       -0.12122174 0.119889565 -0.08805472 -0.021600766
000120 2f d6 ad 3c ef bc a1 3b 12 78 a9 3d f0 f2 06 3e
       0.021220295 0.0049358527 0.08274855 0.13178611
000130 94 6e 92 be 67 94 e3 bd 62 56 2c bd ac 46 85 3b
       -0.2859999 -0.1111229 -0.04207457 0.0040672626
000140 bd 22 06 be cd c8 5c 3d d2 3e 60 3d 68 0d e3 3c
       -0.13099189 0.053902436 0.05474741 0.027716354
000150 00 57 b6 3d fc b4 ae bd 67 89 36 bd 2c fc c1 3d
       0.08903313 -0.08530614 -0.04456463 0.09471926
000160 32 2b a8 bc 0e 4c 69 bd 6f e1 ce bd b4 0a c6 3d
       -0.02052841 -0.056957297 -0.10101592 0.0967001
000170 e7 db a1 bd 1a 6a c8 3c af be 19 3e 94 74 6b 3d
       -0.07903271 0.024464656 0.15014146 0.057484224
000180 cd 52 20 be 65 17 0d 3e 4f c9 2c 3c ad 2e f0 bd
       -0.15656586 0.13778456 0.010546043 -0.11727653
000190 b1 28 00 be f7 66 79 bd 5c 77 a5 3c d0 c3 ac 3d
       -0.12515523 -0.06088921 0.020198517 0.08435786
0001a0 79 d5 02 3e 63 87 1e 3e 01 e0 66 3d 56 66 0a 3e
       0.12776746 0.15481333 0.05636597 0.135156
0001b0 09 b9 02 be 76 0c bc 3e cb c0 fd bd d8 43 ff bd
       -0.12765898 0.36728257 -0.12390288 -0.12464112
0001c0 93 53 6b 3d 20 ac 82 3d 32 c7 cf 3d 9c d3 25 be
       0.05745275 0.063804865 0.10145415 -0.16194004
0001d0 b6 d9 5c 3c bf 33 17 3d 05 fa 79 bd e3 fd fa bd
       0.013479641 0.036914583 -0.061029453 -0.12255456
0001e0 d8 ce e6 bb 57 52 59 bd 60 36 c2 bd 7e 00 e2 bd
       -0.0070437007 -0.05305704 -0.094830275 -0.1103525
0001f0 29 74 c6 bd ec df cd bd c2 cf 21 be d0 53 57 bc
       -0.096901245 -0.10052475 -0.1580191 -0.013142541
000200 e1 72 cd 3c 37 44 ce 3d b9 6f 32 bd 51 da 21 3d
       0.025079193 0.10071605 -0.04356358 0.039514843
000210 19 ee 95 bc e3 03 2d bd 87 81 a0 3d 47 27 00 3e
       -0.01830201 -0.042240035 0.078372054 0.12514983
000220 e4 9d 4f 3d 6b 7c ef 3c e4 68 35 bd 1f 61 1d 3e
       0.050687686 0.029234132 -0.044289485 0.1536908
000230 99 4f e9 3d 0a 8c 9e 3c 7a 83 af 3e a6 96 33 be
       0.11392135 0.019353885 0.34279996 -0.17537937
000240 37 59 94 bd 41 80 12 3d 8e 32 1c 3d 10 54 71 3c
       -0.07243579 0.035766844 0.03813415 0.014729515
000250 c0 8f de bc 48 61 03 be 41 cf 20 be 15 35 a9 bd
       -0.027168155 -0.12830079 -0.15704061 -0.08262078
000260 92 53 06 be 36 2e dc 3b 40 f6 94 3d ae 7b 0e be
       -0.13117817 0.006719376 0.07273531 -0.13914368
000270 4d 03 f2 3d 47 bc d2 3c 12 37 cc 3d 4b 2e 14 be
       0.11817036 0.025724543 0.09971441 -0.14470784
000280 f3 b1 48 bd 95 bf fd bd aa 59 41 bd fa 0c 2c be
       -0.04899783 -0.12390057 -0.04720465 -0.16801825
000290 e1 b5 90 3d 97 24 b4 3d 99 6c 44 3d 51 ca 31 bc
       0.07065941 0.087960415 0.04795513 -0.010851459
0002a0 55 6f b3 3d 22 f3 dc 3d ba 80 da bd cf ed fb bd
       0.08761469 0.107885614 -0.10669084 -0.12301218
0002b0 2c 04 84 bd a9 94 2e 3d 5a fa 1e bd 06 dc 03 3e
       -0.06446108 0.042622242 -0.038812973 0.12876901
0002c0 b4 17 5c bd 71 5a 19 3d 5b 36 f5 3c b3 be 99 3d
       -0.053733543 0.037439767 0.029933145 0.07507076
0002d0 29 cd dd bd c1 26 ae bd e1 4c 6b be 6a e7 93 be
       -0.10830147 -0.085034855 -0.22978546 -0.28887492
0002e0 03 66 b4 be ab 45 da 3d df 17 08 be 40 eb 03 3d
       -0.3523408 0.10657819 -0.13290356 0.032206774
0002f0 d8 98 9d 3d 2d 7d 05 be 59 c6 f8 bd ed 92 55 3e
       0.07695168 -0.13036032 -0.12147207 0.20856829
000300 92 1a a3 3c 7b d4 a8 3d ca a8 c3 3c 1d ff e6 38
       0.01991013 0.082436524 0.023884196 0.00011014773
000310 1a 81 69 bd 91 17 9c bd ff bd a2 bb 73 84 66 bc
       -0.057007886 -0.076216824 -0.004966497 -0.014069664
000320 57 59 a3 3d 3a 57 04 3e 87 b8 d0 3c 3e bb b6 3d
       0.079760246 0.129239 0.025478614 0.08922432
000330 e0 4e 2b be 30 72 e9 bd d2 cc 86 3b 3c db b7 3c
       -0.16729307 -0.11398733 0.004113772 0.022443406
000340 c4 f5 b9 be 2c b6 14 bd 3b 46 58 bd 95 a8 cb bd
       -0.36320317 -0.036306545 -0.052801352 -0.09944264
000350 7d 7e 7a 3d ff 35 9b 3d 70 e5 13 3d 68 8e 95 bd
       0.061155785 0.07578658 0.03610748 -0.073025525
000360 2c 07 0a be b9 65 d1 3d 1a ac c7 3d 5f 64 5d bd
       -0.13479298 0.1022448 0.09749623 -0.0540508
000370 5b 0b f6 bd b5 51 4c 3d 2d d3 06 be d5 b2 74 3d
       -0.12013885 0.04988261 -0.13166495 0.05974086
000380 99 6f 90 bc 85 da 21 3e 08 7f 91 bd 6f ef 70 bd
       -0.017631339 0.15806015 -0.071043074 -0.05882209
000390 d9 1a 29 3e 19 09 c2 3c 48 5e e5 bd 2e 6d 07 3d
       0.16514148 0.023685979 -0.11199623 0.033063106
0003a0 d8 44 62 bc 8d 33 22 be 6e 0f 0b bd 49 b1 9d bc
       -0.013810359 -0.15839978 -0.03395026 -0.019249575
0003b0 b7 4a b5 3d 94 61 aa bd 46 0a a5 3d 87 74 ad bc
       0.08852141 -0.08319393 0.080586 -0.021173729
0003c0 26 82 50 3d 97 82 a9 3e 46 ce 26 be 3e f1 0e be
       0.05090537 0.33107445 -0.16289625 -0.13959214
0003d0 83 36 41 bd fe 6f 9b bc 69 94 e8 3d be 5c bc 3c
       -0.047171127 -0.0189743 0.11356432 0.022993442
0003e0 92 82 82 bc c0 ae 03 be 68 c6 a1 3c 35 1a 1c 3d
       -0.015931401 -0.1285963 0.019747928 0.03811093
0003f0 e8 16 53 bd 42 2d 8f 3d da 12 c5 3d 44 68 a3 3d
       -0.051535517 0.06991054 0.09622736 0.079788715

linear.bias f4 [128]
000000 e8 ad 20 3e 43 80 56 3d ae b4 ff 3d 9d 99 a4 bc
       0.1569134 0.052368414 0.12485634 -0.02009278
000010 f9 7e 41 3c bc d0 41 3e 5b 8f 3a bd 6e 29 4a bd
       0.011810058 0.18927282 -0.04554687 -0.049355917
000020 34 75 35 3e ab e4 3c bc e0 bf 02 3d d7 fc f6 bc
       0.1772049 -0.011529128 0.031921268 -0.03014986
000030 8d 07 13 be 59 5f 0b be bf a0 6d be 6a 29 a5 3d
       -0.14358349 -0.13610591 -0.23205851 0.0806454
000040 2b 84 ea bd f6 74 84 3e 44 97 17 be 07 df 70 3e
       -0.1145099 0.25870484 -0.14803797 0.23522578
000050 c5 23 84 3e ba d5 3c be 20 59 5d be a1 4e 70 3d
       0.2580854 -0.18440905 -0.2161603 0.058668736
000060 cc 1c 06 3e f4 9b 0d be 3f a6 57 3e 24 d8 a6 bd
       0.13096923 -0.13829023 0.21059512 -0.08146694
000070 61 f7 50 be d7 f2 97 bd 66 46 f0 3d 57 0a 98 bd
       -0.20406868 -0.07419365 0.117321774 -0.07423847
000080 db db a1 bc 9e 62 cc bd 84 c6 c2 bd bd 10 66 be
       -0.019758156 -0.09979747 -0.0951052 -0.22467323
000090 5d 6f 17 3e 5a d2 be bd 6d a5 89 be 57 b3 80 3e
       0.14788575 -0.09317465 -0.26884022 0.25136825
0000a0 79 6f c8 bd f1 3c a8 3d c4 31 77 3e 5f d1 48 3e
       -0.09786887 0.08214749 0.24140078 0.19611119
0000b0 5a 3b 63 be 15 9f 36 3c e0 9d 5b 3d fa 33 94 3d
       -0.2219061 0.011146327 0.05361736 0.07236476
0000c0 51 0e 36 be 1f 91 08 3e fb d1 df bd 42 21 4e 3e
       -0.17778899 0.1333661 -0.109287225 0.20129874
0000d0 4b 92 3c 3e 47 fd 59 bd 67 79 5d 3d f0 3d 6e be
       0.18415181 -0.05322006 0.054070856 -0.23265815
0000e0 10 a2 e1 3d fc ce 31 3e c1 6c 5a 3e c0 cc fe 3a
       0.11017239 0.17364115 0.21330549 0.0019439682
0000f0 7f 8b 47 3d 8b 00 bd bd 75 b0 f9 bd 77 d8 29 be
       0.04871702 -0.09228619 -0.1219186 -0.16586481
000100 91 69 a8 bd 20 89 b6 3d 41 a5 4c 3e ea 6b 97 be
       -0.0822326 0.08912873 0.19984914 -0.2957452
000110 4e 81 0c 3b 5c a2 c1 bd d6 4e 22 be 7e a9 74 3d
       0.0021439376 -0.09454796 -0.15850386 0.059731953
000120 eb c6 d5 bc ad 18 92 bd a1 ca 3c bd 11 75 45 be
       -0.026095828 -0.07133613 -0.04609168 -0.19282939
000130 43 5b 8e 3d 41 bd b7 3d bb f4 81 3e 2e 39 9e bd
       0.069510005 0.08971644 0.25382027 -0.0772575
000140 1f 2a 78 be f4 85 26 3e 76 7a 4e 3d 9c 01 00 be
       -0.24234818 0.16262037 0.050409757 -0.12500614
000150 0d 4b a6 bd 82 03 42 3d ed 38 95 bd 84 95 8b 3d
       -0.081197836 0.047366627 -0.07286248 0.06815627
000160 aa fe a4 bc 97 8c 2a 3e a2 24 92 bd f5 d5 6b be
       -0.020140965 0.16655193 -0.071358934 -0.23030837
000170 ff 80 65 3e b3 ca 5d be 4d ac 69 3e f6 7f 9a bd
       0.2241249 -0.21659355 0.22819634 -0.07543938
000180 cf 8a 3c 3c 32 6c e9 bd 0b b6 0d 3e 23 85 3c 3c
       0.011507704 -0.1139759 0.13838975 0.011506352
000190 70 be 63 3d 2b c0 69 bd 29 b7 ab bd 1a 54 57 3e
       0.055601537 -0.05706803 -0.083845444 0.21028176
0001a0 d8 db 8a be ff 43 56 bc 69 0a 2f be fd 2d 22 bd
       -0.27120852 -0.013077735 -0.17093815 -0.03959464
0001b0 97 ad 0a 3e 90 1f 39 be ad b6 c2 bc 0b 06 8e 3d
       0.13542782 -0.18078446 -0.023768747 0.06934746
0001c0 62 5d 63 be 70 9d 59 bc 3c e6 be 3d 92 c2 d1 3d
       -0.22203591 -0.013282165 0.093212575 0.102421895
0001d0 5f 73 18 bc 4e ec 98 3a 1f aa b3 bd 3e 73 45 bc
       -0.00930485 0.0011667104 -0.087726824 -0.012051402
0001e0 9b 83 8c 3e d4 f2 f6 3d 13 b3 e7 bd c6 49 58 be
       0.27444157 0.120580345 -0.113134526 -0.21121892
0001f0 fa e5 96 3d 9c ba ea 3d ba 4b ac 3d 61 2d 7e be
       0.07368083 0.11461374 0.08412881 -0.24821998

layers.0.mod_linear.weight f4 [128, 128]
000000 9e d5 1e 3d 4d eb 25 bd df 0a 7b 3d 0a 54 68 3c
       0.03877794 -0.040507603 0.061289664 0.014180193
000010 7d fb 08 be da d7 82 bd db a7 38 bc 8e 0f 3c 3c
       -0.13377185 -0.06388827 -0.011270489 0.011478318
000020 6d c1 e4 3d b8 3e 7e 3d ad 8d 2c 3d a9 6a 1b 3d
       0.111697055 0.062071532 0.0421273 0.037943516
000030 69 fd 7c bd ab 14 9e bd 76 ed 83 bd 9f ac 03 3d
       -0.06176511 -0.07718786 -0.064417765 0.032147046
000040 68 f1 a4 bd da e8 c7 3d 87 0b 9a bd 13 23 23 3e
       -0.08053857 0.0976121 -0.0752173 0.15931349
000050 bd 13 dc bd ed 14 c0 bd 0d 81 62 bd 4f 2c b5 3d
       -0.10745952 -0.09378991 -0.055298854 0.08846342
000060 e7 57 ea 3d 7b 82 aa bd b4 66 c0 3d f1 4a c2 bd
       0.11442547 -0.083256684 0.09394589 -0.0948695
000070 17 51 32 bd b9 44 fc 3d e7 e7 8d 3d 26 8a a2 bd
       -0.043534365 0.12317795 0.069289975 -0.07936506
000080 2a 68 87 3d 03 93 03 3d 7d 69 22 be 0b 7d 3a 3b
       0.066116646 0.032122623 -0.15860553 0.002845588
000090 c8 66 84 3c df 06 7c 3d a8 bb 73 be 70 d5 0d 3e
       0.016162291 0.06152999 -0.23802054 0.13850951
0000a0 af 02 1a bd 80 2f 5c 3d 44 d2 a6 3b e2 b5 07 bd
       -0.037600216 0.053756237 0.0050909836 -0.03313244
0000b0 d2 90 7f be 5b e7 b8 3d 41 ed 2c bc a0 a8 b9 3c
       -0.24957588 0.090285026 -0.010554613 0.022663414
0000c0 30 8c 26 b9 14 b0 4d 3e 14 28 42 bc 77 76 ba 3c
       -0.00015883218 0.200867 -0.011850376 0.022761567
0000d0 87 03 e9 bc ed cc 41 be f2 2a 79 3d 16 57 0c be
       -0.028444065 -0.18925829 0.06083197 -0.13705096
0000e0 fc 13 80 bd af e9 1d bd f4 49 a3 3b 2b ee d6 3c
       -0.06253812 -0.038552936 0.004983181 0.026236614
0000f0 7f 4c 3e 3d 70 e7 a4 bd 61 5d 24 bd c4 e9 cf bd
       0.04645967 -0.08051956 -0.040128116 -0.10152009
000100 07 b0 71 3d dc de c0 3d 18 7b 6f 3d 75 49 10 be
       0.059005763 0.09417507 0.058467 -0.14090522
000110 bb 30 a4 bc 73 4c 14 be a1 34 df bd d9 3a 92 bd
       -0.020042768 -0.14482288 -0.1089871 -0.071401305
000120 de 56 ef bd 81 4d 5e bd a8 7b ff 3d 05 d0 54 bd
       -0.116864905 -0.054273132 0.124747574 -0.051956195
000130 d1 04 90 3d ac 51 19 3c df fc 40 3d 0c 18 e3 bb
       0.07032169 0.009357851 0.047116157 -0.006930357
000140 5c 2e 4e be 5a b4 94 3d 5e b3 5a bd 66 c6 ea bd
       -0.20134872 0.07260962 -0.053393714 -0.11463623
000150 ca df 76 3d 7e c8 46 bd 99 4d e0 3d 37 eb f1 bc
       0.060272016 -0.048531048 0.109523006 -0.029531104
000160 ed 9b 64 3d b3 b5 48 3d 9a 7b 38 bb 4d 2f 94 3d
       0.055812765 0.049001407 -0.0028149844 0.072355844
000170 ce dc 2c 3d 49 10 f5 ba 3e a1 11 3d d8 cf f2 3c
       0.042202763 -0.001869687 0.035554163 0.029640123
000180 e7 8a ce 3c 50 44 ab bd f8 bc 85 3d 95 98 52 3d
       0.025212718 -0.08362639 0.065301836 0.051415045
000190 e6 aa b4 3a 86 c2 57 bd b5 ab 8e 3c e3 11 77 3d
       0.0013783842 -0.052675746 0.01741586 0.060319792
0001a0 00 11 c6 ba 47 6b c3 bd 92 26 06 3d ab 6f d6 3c
       -0.0015111268 -0.09541946 0.032751627 0.026176294
0001b0 cb f0 fc 3d 7f d5 51 3d 35 9c 55 bd ff e3 b2 bd
       0.12350615 0.051228996 -0.052150924 -0.08734893
0001c0 8e 8a 1a 3d 80 3e 0b 3d 7d 91 cf 3d d4 35 f2 bc
       0.037729792 0.03399515 0.101351716 -0.029566683
0001d0 c6 cd 81 bd a3 9c 4f bb 2d 53 aa 3c 5c 6e a4 3b
       -0.06338076 -0.0031679056 0.020791614 0.0050180387
0001e0 bb 38 e6 3d 84 d7 0d 3e 6b 71 ae 3c d6 a3 6e bd
       0.11241289 0.13851744 0.021294316 -0.058261715
0001f0 50 97 97 bd a0 55 25 3d 9c 36 43 3d 37 85 8e 3d
       -0.074019074 0.04036486 0.0476595 0.069590025
000200 52 cd 30 3d 68 5e ab 3d d9 c7 76 3d bd 35 72 3d
       0.04316456 0.08367616 0.060249183 0.05913328
000210 00 a2 57 bd d5 ac 01 bd f4 fb fa ba ee 0b 79 bd
       -0.05264473 -0.031658966 -0.0019148574 -0.060802393
000220 bc ac e8 3c f2 f5 c0 bd ca ec b9 3c 21 16 dd 3d
       0.028402679 -0.0942191 0.022695918 0.107952364
000230 c0 63 38 bd 50 5c fe bd 87 b4 8f 3c c0 b0 f3 bd
       -0.045017004 -0.12419951 0.017542137 -0.11898947
000240 10 2e 14 3c dc ec 14 3d 5d 77 75 bd ff 86 9d 3d
       0.009044185 0.0363587 -0.059928287 0.07691764
000250 95 b0 f5 bc 80 35 83 3c 47 9b 60 bc 46 0d 6e bc
       -0.029991427 0.016016722 -0.013708896 -0.014529532
000260 a7 a2 9c bb c6 a3 09 bd b8 50 30 3d 4e 49 4c 3b
       -0.004780132 -0.033603452 0.04304573 0.0031171623
000270 76 87 6b 3d 4c e2 85 bd 33 64 05 3d ff 2e 94 bd
       0.057502232 -0.06537303 0.03256626 -0.07235526
000280 fb b9 a7 3c 3b ad b5 3c 7b a9 41 3c ea d2 d8 bd
       0.020474425 0.02217733 0.011820192 -0.10587104
000290 bf a7 81 3d 8a dd b5 3c 78 55 b3 bd 92 ed e6 bd
       0.06330823 0.022200365 -0.08756536 -0.11275782
0002a0 d3 04 92 bd 2c 94 24 3d 95 1d ea 3c a2 f7 ec bc
       -0.071298264 0.04018037 0.028578559 -0.028926674
0002b0 fc fb 33 bd 93 4a 3a bd 6c 70 01 3e b5 e1 49 3d
       -0.043941483 -0.045481276 0.12640542 0.049287517
0002c0 03 93 15 be c4 a6 b6 3b 7d 5c b0 3d 24 f7 91 3d
       -0.14606862 0.005574079 0.08611391 0.071272165
0002d0 de 48 e0 3d aa 2e 33 bc a8 b3 03 3e 04 a1 30 3c
       0.10951398 -0.010936419 0.12861502 0.010780577
0002e0 58 d0 c1 bd c1 1f 36 3d 95 de 2f bd f2 a9 bd bd
       -0.094635665 0.044463877 -0.04293688 -0.0926093
0002f0 6c 22 87 bc bf c1 5e 3d 36 c4 da 3c 0c d4 42 3c
       -0.016495906 0.05438399 0.026704889 0.011891376
000300 a1 e7 5b 3d d1 87 55 3c 2f ba 81 bd 19 74 d3 3c
       0.053687695 0.013032869 -0.0633434 0.025812196
000310 c2 d1 f6 bc 1c 02 73 3b b1 43 32 be d3 c4 17 bd
       -0.030129317 0.0037080115 -0.17408635 -0.03705294
000320 66 e0 b0 bc 98 4d 09 bd 7a 65 2e 3d 55 79 a7 bd
       -0.021591377 -0.033521265 0.042577244 -0.08177439
000330 b8 ad 32 3d eb 58 44 3d d7 d1 3e 3e 5e 38 7d bd
       0.043622702 0.04793636 0.18634735 -0.061821334
000340 a1 81 16 bd f9 b4 23 3a 79 f0 7b bd 17 d5 91 bd
       -0.036744718 0.00062449236 -0.06150863 -0.07120722
000350 83 2e eb 3c 01 db cc 3d fe f0 2f 3b f2 5f 06 3d
       0.028708702 0.10002709 0.0026846523 0.032806344
000360 ea c7 15 3b c7 0d c1 bd e7 4c c6 bc 82 ec de bd
       0.0022854754 -0.09426456 -0.024206592 -0.10884954
000370 94 25 c0 3c 41 58 f3 3d 66 e4 35 3d 63 ea a2 bc
       0.023455419 0.118820675 0.04440727 -0.019887155
000380 88 56 9b 3d a9 b0 9a bd 9f a8 09 3d 83 bb a5 bd
       0.07584864 -0.075532265 0.033608075 -0.08092406
000390 3c 0c 2c 3d fe 12 0c 3d 8e 89 8a 3b 63 66 a0 3d
       0.042003855 0.0341978 0.0042278236 0.07832029
0003a0 94 1f 10 be 82 99 0d 3e 93 4e ea bd b6 f0 9c bb
       -0.14074546 0.1382809 -0.11440768 -0.004789437
0003b0 6b 19 58 3b ea 57 48 bb 89 92 d0 3c 08 ca 79 bd
       0.0032974135 -0.003056998 0.025460498 -0.060983688
0003c0 00 44 15 be 29 54 e4 3d 2c 9b 96 bd b7 5e 92 3c
       -0.14576721 0.11148865 -0.073538154 0.01786743
0003d0 ae a1 ae bc 5e 7f 37 3c e7 59 d5 bd 2c 6c 4d bd
       -0.02131733 0.0111998 -0.10417538 -0.05015199
0003e0 87 f4 22 3d a8 47 ff bb d8 40 94 3c eb 64 00 be
       0.03978398 -0.0077905245 0.018097326 -0.12538497
0003f0 91 f1 65 3d 8a c7 cd bd 4d ef b4 bc ef d1 75 bd
       0.05613858 -0.10047825 -0.022086764 -0.06001466

layers.0.mod_linear.bias f4 [128]
000000 e3 9b 28 bc ca e8 4e 39 7f 19 d7 bd ce d9 0a bc
       -0.010291073 0.00019732412 -0.1050291 -0.00847478
000010 c1 af e7 3d ea ec 86 3d 69 3b f1 3d f3 1c d5 bd
       0.11312819 0.065881565 0.1177891 -0.10405912
000020 08 de 09 bd 48 e6 e1 bd 27 10 ca 3c d4 19 0a 3d
       -0.03365901 -0.11030251 0.024665905 0.033716038
000030 c9 a6 8d bd b0 ed ed bd d0 c3 22 be 76 a9 a4 bd
       -0.06916577 -0.11617601 -0.15895009 -0.080401346
000040 e8 dd 2b bd 6e b2 08 3e 6f 73 be bd fc df 18 be
       -0.041959673 0.13349316 -0.09299361 -0.14929193
000050 a6 48 d8 bd c8 55 0c 3a af 06 3a 3d 51 c4 3a 3c
       -0.105607316 0.00053533586 0.04541653 0.011399345
000060 20 14 c0 3d 55 70 62 3d 27 11 a3 bd e0 01 c3 bd
       0.093788385 0.05528291 -0.07962256 -0.09521842
000070 99 e7 94 bd 85 66 23 bd cc d3 c0 bd f0 95 c7 ba
       -0.07270736 -0.039892692 -0.09415397 -0.001522718
000080 36 39 8e 3b cb c4 f0 3b 1e c1 4b bd 6a 0d 47 be
       0.004340316 0.0073476783 -0.049744718 -0.19438711
000090 93 89 16 bd 47 59 13 be 1b 47 40 3e 1c 56 92 bd
       -0.036752295 -0.14389525 0.18777125 -0.0714533
0000a0 5a 62 2d bd 91 5a b2 3c 88 ff 74 bd 74 8b 47 bd
       -0.042330123 0.021771701 -0.059814006 -0.048716977
0000b0 43 7a 4b 3c 6b 1b 82 bd 5e 66 6d 3d c8 20 43 bd
       0.012419286 -0.06352886 0.057958953 -0.047638685
0000c0 ff c2 f3 bd 84 e3 ba bd 6b a0 08 bd e2 bd 18 3b
       -0.11902427 -0.091254264 -0.03335611 0.0023306538
0000d0 8c b1 90 3d 60 83 89 3d 3c cc 2a 3d 9a 7e 71 3d
       0.070651144 0.06714511 0.04169868 0.058958627
0000e0 ea bc e0 bd ce 25 70 3e 0d 93 ba 3c 5c 3f 0c 3d
       -0.109735325 0.23451921 0.022775197 0.03424011
0000f0 bb 06 bc bd 98 03 96 bd 1e 71 4a 3d df 18 b9 bd
       -0.09180971 -0.07324904 0.049424283 -0.09037947
000100 8a 7a 18 3d 62 16 97 bd bf b7 12 bd 7c c9 ec 39
       0.037226237 -0.07377316 -0.035819765 0.00045163545
000110 1d 40 d3 bd 3b 31 19 bd 70 b2 0b 3e c3 e9 74 bd
       -0.10314963 -0.037400465 0.13642287 -0.059793245
000120 dc b5 08 3b a4 49 86 3d 64 5d 84 bd fb 3b 04 bd
       0.002086035 0.065570146 -0.06463125 -0.032283764
000130 bf 99 bb bd ae aa cd bd 13 89 1d 3e c8 a3 f4 bc
       -0.09160184 -0.1004232 0.15384321 -0.029863253
000140 c3 a1 0d bd f6 dd 5e 3d 1d 52 01 3e ae 1e 43 3e
       -0.034578096 0.054410897 0.1262898 0.19054672
000150 a6 f9 61 3e eb 6c 95 bd 33 0f 53 3e fc d0 8c 3d
       0.2206789 -0.07296165 0.20611267 0.06875798
000160 ef ad c4 bd 4a 9b 27 bd 43 03 d2 3b 87 bd 10 be
       -0.09603488 -0.04091958 0.0064090802 -0.14134799
000170 1a 07 90 3b 2f a8 5b bd 36 68 f8 3d a9 6a b7 3d
       0.004395378 -0.05362719 0.12129252 0.08955891
000180 de db f1 bd 56 1e 89 3d 2f 7c 87 bd 80 d0 17 3e
       -0.118095145 0.06695239 -0.06615483 0.1482563
000190 0f 12 b4 bd 25 72 03 bc dc 01 10 bd d4 c4 22 3d
       -0.08792507 -0.00802282 -0.035158023 0.03973849
0001a0 09 d1 16 3d c6 74 f6 bb 0b 2b b3 3d 19 c5 53 3e
       0.036820445 -0.0075212447 0.08748444 0.20680656
0001b0 d1 66 32 be d1 39 51 3c 9d 51 03 3d 63 99 da bc
       -0.17422034 0.012770132 0.032060254 -0.026684469
0001c0 b6 7d 46 bd 42 00 18 3c 1e ee 64 bd 7d 73 46 3e
       -0.04845973 0.009277405 -0.05589115 0.19379993
0001d0 a7 49 06 3b 47 52 61 3e f4 89 92 bd 36 85 ec bd
       0.0020490678 0.22004043 -0.07155219 -0.115488455
0001e0 88 1e b0 ba 72 75 96 3d cf a4 19 be db 69 60 bc
       -0.0013436833 0.0734662 -0.15004276 -0.013697113
0001f0 25 7e 94 bd 50 52 9b bc 2f 5a 0d 3e fd 37 91 bb
       -0.07250623 -0.018960148 0.13803934 -0.004431723

layers.0.mod_norm.weight f4 [128]
000000 eb 09 74 3f bc e3 62 3f 5f 25 9d 3f 75 d9 7f 3f
       0.95327634 0.88628745 1.227703 0.9994119
000010 95 a0 53 3f af 9b 6b 3f 37 86 69 3f 49 7a 6c 3f
       0.82666904 0.9203443 0.9122042 0.9237409
000020 a9 2f 61 3f 0d 0c 62 3f 9f 90 61 3f f1 09 4f 3f
       0.8796335 0.8829964 0.881113 0.80874544
000030 f3 30 57 3f 16 3b 54 3f 78 8b 8c 3f d6 21 80 3f
       0.84059066 0.8290266 1.0980062 1.0010326
000040 ab 4d 45 3f 61 ce 5a 3f b7 e7 80 3f 5d 4d 80 3f
       0.77071637 0.8547116 1.0070714 1.0023609
000050 a0 e7 63 3f c0 9a 56 3f be 22 52 3f c8 bd 87 3f
       0.89025307 0.8382988 0.8208426 1.0604792
000060 22 be 78 3f a3 c8 5e 3f 89 8a 6a 3f c4 31 81 3f
       0.9716512 0.870249 0.9161764 1.0093312
000070 bb 04 59 3f 1e e9 82 3f 2b 5e 50 3f 18 e7 5f 3f
       0.84772843 1.0227392 0.8139369 0.87461996
000080 0d 70 6e 3f a4 3b 85 3f 06 9a 5e 3f 77 bf 8d 3f
       0.93139726 1.0408826 0.8695377 1.1074055
000090 12 3b 4b 3f 35 c8 92 3f 6b d8 76 3f 26 54 6b 3f
       0.7938701 1.1467348 0.9642398 0.91925275
0000a0 03 bb 86 3f 92 9b 5a 3f d0 17 5e 3f fa dd 30 3f
       1.0525821 0.8539363 0.86755085 0.6908871
0000b0 69 65 6a 3f dd ee 5b 3f 36 55 50 3f bd af 63 3f
       0.9156099 0.8591135 0.8138002 0.8894003
0000c0 d9 d1 7f 3f 75 2a 75 3f 15 ac 63 3f ea ba 73 3f
       0.9992958 0.9576791 0.8893445 0.95207083
0000d0 7f f5 70 3f cf 1b 64 3f 08 8b 61 3f 3d 15 58 3f
       0.941246 0.8910493 0.8810277 0.8440741
0000e0 c8 47 78 3f b8 93 8a 3f 74 48 56 3f 6c 6d 62 3f
       0.9698453 1.082633 0.83704305 0.88448215
0000f0 b8 fb 6d 3f d3 8b 62 3f 6d 47 6a 3f b9 fe 6e 3f
       0.9296222 0.88494605 0.9151524 0.93357426
000100 9c b1 63 3f fe 68 69 3f 63 2d 81 3f 78 df 62 3f
       0.88942885 0.9117583 1.0091976 0.88622236
000110 f3 d2 73 3f 46 a2 60 3f fe 9b 73 3f c7 b6 60 3f
       0.9524376 0.8774761 0.951599 0.87778896
000120 48 10 5d 3f 2b 36 6d 3f 8a e1 6f 3f 8e 47 6d 3f
       0.8635297 0.9266078 0.9370352 0.9268731
000130 e6 0f 46 3f f2 38 73 3f 42 85 83 3f 96 71 60 3f
       0.7736801 0.95008767 1.0275042 0.8767332
000140 89 cc 48 3f 9e 73 6b 3f 1c 83 70 3f 1a 65 88 3f
       0.78437096 0.9197329 0.9395006 1.0655854
000150 dd 87 80 3f c1 20 4c 3f 28 a4 84 3f b4 25 5e 3f
       1.0041462 0.7973748 1.0362597 0.8677628
000160 66 87 81 3f 87 fa 54 3f 50 53 67 3f 75 4f 82 3f
       1.0119445 0.83194774 0.903615 1.0180498
000170 d7 b2 5c 3f b8 b9 53 3f f9 5b 62 3f 0a e7 6b 3f
       0.8621039 0.8270526 0.8842159 0.9214941
000180 42 e1 8c 3f f3 ea 6a 3f aa c3 58 3f b4 d8 6a 3f
       1.1006243 0.91764754 0.8467356 0.9173691
000190 d8 39 42 3f fb 4f 42 3f c0 ed 5b 3f 6a a5 72 3f
       0.7586951 0.7590329 0.8590965 0.9478365
0001a0 59 9a 5b 3f 97 a3 62 3f 75 d9 6c 3f 89 87 86 3f
       0.8578239 0.8853087 0.92519313 1.0510112
0001b0 2e 3b 93 3f 28 85 54 3f 52 9a 74 3f a4 c9 65 3f
       1.1502435 0.8301568 0.95547974 0.89760804
0001c0 34 31 5d 3f b5 4c 67 3f 5a 46 72 3f c2 2d 7f 3f
       0.86403203 0.9035142 0.946386 0.99679196
0001d0 1d 8d 62 3f 3c 8a 8e 3f f9 c8 7c 3f d1 61 7d 3f
       0.8849657 1.1135936 0.9874416 0.9897738
0001e0 d6 0a 65 3f fe 5d 6c 3f 60 1a 93 3f cd 90 7f 3f
       0.8946966 0.9233092 1.1492424 0.99830323
0001f0 9e 5c 8d 3f 77 29 5e 3f ee d9 6e 3f c5 b7 4f 3f
       1.104389 0.8678202 0.93301284 0.81139785

layers.0.mod_norm.bias f4 [128]
000000 25 39 13 bd de 0b a2 bd 2d e3 9c bc 00 88 83 bc
       -0.03594317 -0.0791242 -0.019151295 -0.01605606
000010 cd b7 2a be b1 e3 d8 bd de 88 69 bd 66 a4 92 3c
       -0.16671677 -0.10590304 -0.057015292 0.017900657
000020 b9 ef 04 bd da 6e d0 bd d1 88 8f bd 59 d1 f6 bd
       -0.03245518 -0.10177393 -0.070085175 -0.12051649
000030 4f 03 ef bd eb 60 27 be 61 90 c4 bc f1 38 1f 3d
       -0.11670553 -0.16345565 -0.023994626 0.038872663
000040 43 29 0c be a6 f4 97 bd 76 65 0e 3d 80 3a 83 bd
       -0.13687615 -0.0741971 0.03476473 -0.06407642
000050 b0 a4 de bd 76 7f a3 bd e7 6d 23 bd 08 d8 02 3c
       -0.108712554 -0.079832956 -0.039899733 0.007986076
000060 2a f4 94 3c 41 d6 b2 bc 84 e4 ec bc a8 56 e5 bd
       0.018182833 -0.02183068 -0.028917558 -0.11198169
000070 72 a1 12 be b8 30 7b bc 59 4f 33 be b8 b5 b8 bd
       -0.14319399 -0.01533144 -0.17510737 -0.09019035
000080 cc 51 d7 bc ee 8d a9 3b 35 4f 72 bd 1d aa 14 3c
       -0.026284121 0.00517439 -0.05915757 0.009073761
000090 8d ca 47 be 43 79 26 3d bf f8 b0 bd bb c7 92 bd
       -0.1951086 0.040642988 -0.086411946 -0.07167002
0000a0 d5 37 2c bc be 4c c4 bc d8 3d ad bd 08 54 31 be
       -0.010511358 -0.023962375 -0.084590614 -0.17317212
0000b0 ce ff dc 3a fc 67 c0 bd d2 b8 9e bd 7f 08 84 bb
       0.0016860904 -0.093948334 -0.077500954 -0.004029333
0000c0 59 6c 76 bc 84 23 0b bd c7 44 01 be 6a 09 a8 ba
       -0.0150404805 -0.033969417 -0.12623893 -0.0012820188
0000d0 e4 aa bd 3c 7d 7a 6c bc 83 1a e2 bd 04 74 04 be
       0.023152776 -0.0144335 -0.11040213 -0.12934881
0000e0 20 83 4d bd 3d fe b2 3c 3b 44 5e be 54 23 dc bc
       -0.05017388 0.021849746 -0.21705715 -0.026872315
0000f0 e2 71 fc bc 49 9f fd bd 18 4b 95 bd 0e a8 75 bc
       -0.030816022 -0.12383897 -0.072897136 -0.014993681
000100 1e ae 1f be 78 35 fa bc ac d5 c5 3b f9 6e f9 bd
       -0.15593764 -0.030543074 0.0060374346 -0.121793695
000110 8d e4 11 bd ff ca ec bd cf 0f 10 be c0 33 ad bd
       -0.035618354 -0.11562156 -0.1406853 -0.08457136
000120 be e2 e4 bd 13 65 8e bd cd a5 bc bc 40 4c 7e bd
       -0.1117606 -0.06952872 -0.023028279 -0.062084436
000130 8f d9 0f be be 6e 8a bc a8 bf ca bb ef bd cd bd
       -0.14047836 -0.01689851 -0.006187398 -0.100459926
000140 39 cf 4e be 8a 71 8f bd 14 f2 a1 b9 52 d7 b9 bc
       -0.20196237 -0.07004078 -0.00030888675 -0.02268568
000150 11 68 b1 bc 96 e4 2d be 52 84 25 bd 5f 10 cd bd
       -0.021656068 -0.1698173 -0.040409394 -0.10012888
000160 96 75 9b bc c4 15 1f be b2 2d eb ba b0 44 65 38
       -0.018976968 -0.15535647 -0.0017942695 5.4661825e-05
000170 df 72 9d bd 13 3c a5 bd b9 31 64 bd 95 21 e9 bd
       -0.076879255 -0.08068099 -0.05571148 -0.113833584
000180 e8 a8 d4 3a 47 97 15 be 90 e8 30 be 31 98 a8 bd
       0.0016224654 -0.14608489 -0.17276216 -0.08232153
000190 e1 43 4b be ee 88 21 be c5 0c c2 bd 34 6b 30 bc
       -0.19850112 -0.15774891 -0.09475092 -0.010767747
0001a0 28 1f d1 bd 7c 3f cc bc 6f 71 ec bd 9f 5a 7e bc
       -0.10211021 -0.024932615 -0.11545073 -0.015524535
0001b0 e5 c8 ba bc 65 69 0b be ae 17 a5 bc 76 2d 2b be
       -0.022800872 -0.13614424 -0.020152893 -0.1671656
0001c0 c1 74 ac bd 06 8f fd bd d3 14 a2 bd e9 de 74 3c
       -0.084207065 -0.12380795 -0.07914128 0.014945724
0001d0 48 41 9a bd 0f ab 00 bc 8a e4 7c bd b4 a4 1c bd
       -0.07531983 -0.007853284 -0.06174139 -0.03824301
0001e0 ec ea 6e bd 72 34 88 3c 8f 66 ad 3b f3 4e 2c 3b
       -0.058329508 0.01662657 0.005291767 0.0026292175
0001f0 7e 47 26 3d 20 af 10 be 6f 99 74 bd e8 e1 33 be
       0.040595524 -0.14129305 -0.05971664 -0.17566645

layers.1.mod_linear.weight f4 [128, 128]
000000 b6 88 d2 bb 6b 7b 74 bc 89 45 9e 3d 6b 5d 22 be
       -0.0064249886 -0.014922003 0.077281065 -0.15855949
000010 62 8f ae bc aa cd 43 be f1 35 5e 3d c3 9a 87 bd
       -0.021308605 -0.19121423 0.05425066 -0.06621315
000020 d8 5f 1f bd 88 d5 64 bd ce 20 8d bd 7c 2b e0 bd
       -0.038909763 -0.0558677 -0.068910226 -0.10945794
000030 7c 1e bc bc cc c7 90 bc 68 7e 06 bd fe c1 27 be
       -0.022963755 -0.017673396 -0.032835394 -0.16382596
000040 9a e2 0e 3e d2 50 19 be 7d de 40 be 64 0b 7d 3a
       0.13953629 -0.14972237 -0.18834873 0.00096528814
000050 00 4d 81 3b bc 39 8a bd ac 19 53 bd 61 05 17 be
       0.0039459467 -0.06749293 -0.051538154 -0.14748146
000060 12 cc f2 bd 09 f5 c4 bb c5 4a b2 bd 05 53 ed 3d
       -0.118553296 -0.006010656 -0.087056674 0.115881
000070 fe cd 81 bd 80 4f 1d be 8d b8 8f 3d 9e 6d a0 bd
       -0.06338118 -0.15362358 0.07017622 -0.07833408
000080 db cc a4 3d 9f ff 61 bc 85 43 b1 bc 26 31 07 be
       0.080468856 -0.013793855 -0.021638641 -0.13202342
000090 3d 80 e0 bd b8 26 9d 3d 82 31 40 bd 06 91 9a 3d
       -0.109619595 0.07673401 -0.046922214 0.07547192
0000a0 a1 72 16 be 8f b3 aa 3d 12 fa 38 3b 80 b7 a3 bd
       -0.14692165 0.08335029 0.0028225225 -0.07993984
0000b0 f7 b2 14 be 36 6f 9f 3b 5b dd 1b bd 7d d6 0c b9
       -0.14521395 0.0048655523 -0.038052898 -0.00013431344
0000c0 6f 69 e5 3b 25 52 b2 bd 7c 5a 31 3c 17 67 e6 3d
       0.007001094 -0.08707074 0.010824796 0.112501316
0000d0 ac 7b 70 bd c1 23 90 bd 79 d6 cc bd 8b 03 d7 3b
       -0.058711693 -0.070380695 -0.10001845 0.0065617017
0000e0 f9 12 07 be d1 66 c9 bd 72 d7 12 bc 27 0d c3 bc
       -0.13190831 -0.09834064 -0.008962499 -0.023809982
0000f0 67 05 d1 3c 10 33 e1 bd 8a fc e1 bc 92 c6 f6 bd
       0.025515271 -0.109960675 -0.02758624 -0.12049593
000100 fb 4d 3d 3d ee c8 2b bd 0e 57 cc bd d6 25 48 bd
       0.046216946 -0.04193967 -0.09977542 -0.04886421
000110 80 0c e6 3d 67 a3 c6 bc 57 51 fe bd 7c 5e bd bd
       0.11232853 -0.024247838 -0.12417858 -0.09246537
000120 34 62 8f bd 0d 5e 1f bd f6 cf 1a 3c a3 70 53 3d
       -0.07001153 -0.038908053 0.009448996 0.05162109
000130 45 07 72 3d 3c ed 3b bd 89 2b c6 bd ab 4b f3 bd
       0.059088964 -0.04588054 -0.096762724 -0.11879667
000140 5c 22 f1 bd 5e e0 e0 bd 49 72 31 be 67 d3 92 3c
       -0.11774132 -0.10980295 -0.17328753 0.01792307
000150 64 a4 99 bd 43 37 31 bd 85 c6 5b 3d 6b 62 9c 3b
       -0.07502058 -0.043265592 0.05365612 0.0047724745
000160 fe 5d 18 3d 1d 01 ba bc 1d ee b8 bd 9e 7c a8 bd
       0.037199013 -0.022705609 -0.090297915 -0.08226894
000170 01 67 97 bd 47 0b f3 3d a2 a9 aa bc ee 4b ce bc
       -0.07392693 0.11867385 -0.02083284 -0.02518269
000180 eb 4d a9 bd 9e 58 b3 bd 75 e8 0d bd c3 be 2f 3d
       -0.08266815 -0.08757137 -0.034645516 0.042906534
000190 7e 78 0a 3e 16 cc 97 bc 5e 48 27 be b1 95 0a 3d
       0.13522527 -0.018529933 -0.163362 0.033834163
0001a0 a5 64 99 bd f9 25 0c be 27 4b 48 bc 2f f8 bc bd
       -0.074898995 -0.1368636 -0.012224949 -0.09227025
0001b0 1f 03 dc 3d 9c 6b 5c 3d 34 0b 26 bc 9b 23 06 be
       0.10742783 0.05381356 -0.010134507 -0.1309952
0001c0 ca 15 9c bd e4 2a 5e 3d 3d 30 e8 bc 09 44 de bd
       -0.076213434 0.054240122 -0.028343314 -0.108528204
0001d0 1a 98 50 bd c8 b3 51 3d dc b9 12 bd 9e fa df bd
       -0.050926305 0.051196843 -0.03582178 -0.10936473
0001e0 e1 fa 94 3d 31 75 08 bd 14 a4 22 3e c9 4b 25 be
       0.07274414 -0.033314887 0.15882903 -0.16142191
0001f0 d5 71 d5 bd 11 ba f3 3d 4b 1f 56 be 0f a1 99 3d
       -0.10422102 0.11900724 -0.20910375 0.075014226
000200 a9 f3 63 3d 62 65 b0 3c bd eb fb 3d b1 49 ee bc
       0.055652294 0.021532718 0.12300823 -0.029087873
000210 aa 41 94 bd 1f a1 a6 3d 61 6c 02 bd 4f 91 a0 bc
       -0.07239087 0.081362 -0.03184164 -0.019600539
000220 aa e5 26 3e 88 1e 9f bc d0 9f c8 3d f9 4f b6 bc
       0.16298547 -0.019423738 0.09796107 -0.02225493
000230 bd ab 9b 3c eb 06 7d 3d af 28 cd bd a6 5f 22 3c
       0.01900279 0.061774176 -0.100175254 0.0099105
000240 c1 54 89 bc ea 12 55 3e da 1e 2b 3d 79 45 e7 3d
       -0.016764047 0.20807996 0.04177747 0.11292548
000250 42 b9 14 3d fb 7c 8b 3d 93 ad 5b 3d d1 35 af bb
       0.036309488 0.068109475 0.05363233 -0.0053469916
000260 b6 f7 5b 3e c1 44 2d 3d 40 99 91 b9 de ef 16 3d
       0.21481213 0.042301897 -0.00027770735 0.03684985
000270 d6 3c 70 bd 87 47 b3 3c e4 75 13 bd 24 60 78 bb
       -0.058651768 0.021884693 -0.0360011 -0.00378991
000280 9a 68 c8 bc 1e 9b ac bc 2c 52 5e 3d 11 79 0c 3d
       -0.02446394 -0.02107006 0.054277584 0.034295145
000290 d3 7c 36 bd 38 e2 d7 bc 1c 54 9a 3c a2 d2 2b bc
       -0.044552635 -0.026352987 0.018838935 -0.0104872305
0002a0 45 1e b5 3c cc 78 9b 3d 34 e6 86 bd 3f 7e 0c bd
       0.02210916 0.075913996 -0.065868765 -0.034300085
0002b0 c9 af 61 3d 40 09 2c 3c 76 e5 10 3e 93 29 c6 3d
       0.055099282 0.010500252 0.14150032 0.096758984
0002c0 7a 7d f6 bc b1 b0 47 bc 99 91 29 3d 86 fd 2a 3e
       -0.030089129 -0.012188123 0.04139862 0.16698274
0002d0 3d ec dc 3d 6a d0 ee bc ff e0 6b bd 80 60 36 bd
       0.107872464 -0.029152114 -0.05758762 -0.044525623
0002e0 77 e9 0d bd ad 61 1e 3e 07 44 9f 3c b5 11 9a 3d
       -0.034646478 0.15466948 0.019441618 0.075229086
0002f0 40 bb 83 3b 6c d0 2f 3c b5 1c 33 3d 62 22 e8 bc
       0.0040201247 0.010730844 0.04372855 -0.028336708
000300 16 b5 3e 3d 04 20 3e 3d 7d 48 2c 3d 27 4a 94 3c
       0.046559416 0.04641725 0.042061318 0.018101765
000310 2d 23 96 bc 72 3e 55 3d b2 70 46 bc 75 07 ce bd
       -0.01832732 0.052061506 -0.01211183 -0.10060016
000320 fd 7a b3 ba 7c 0d 97 3d 57 2b 40 3d 55 e0 8a 3d
       -0.001369327 0.07375619 0.046916332 0.06781069
000330 8c e9 a3 3c 06 f8 9f 3d 08 c0 90 3d 6c dd 91 3c
       0.020008825 0.078109786 0.07067877 0.017805777
000340 a9 10 8b 3d b9 3b 15 bd b3 41 87 ba fb 28 e8 3d
       0.06790287 -0.03643391 -0.0010319263 0.113359414
000350 13 b4 42 3e c8 d9 10 3c 6e f2 1e 3e e2 07 1a 3d
       0.19014005 0.008840986 0.15522167 0.037605174
000360 c6 03 79 3c 88 f8 6c bd ea f0 e4 3d 5a bc 73 3c
       0.015198654 -0.057854205 0.11178763 0.0148764495
000370 ac 23 e7 3d c7 1d 08 be b3 7d 6b 3e aa 9f d1 bc
       0.11286101 -0.13292609 0.22997169 -0.02558883
000380 5f 32 d2 3c dd f2 d4 3d 1a 8e 54 bc 2c 44 99 3d
       0.025658784 0.10397885 -0.012973333 0.07483706
000390 29 74 87 3d 17 d2 23 3d 69 70 98 bd 86 00 c2 3d
       0.06613953 0.03999528 -0.074433155 0.09472756
0003a0 2e e4 fd 3c d2 f5 16 3e b6 f6 51 3d 87 2a c2 3d
       0.030992594 0.1474221 0.051260673 0.09480768
0003b0 9a 1d 66 3d 82 e6 a7 bd 5f b6 57 3c c1 ff 7f bd
       0.056180574 -0.08198263 0.013166039 -0.062499765
0003c0 b0 a1 9f 37 84 08 a2 3d b8 38 80 3d a0 6c 42 3d
       1.9029569e-05 0.079117805 0.06260818 0.047466874
0003d0 da cc 3e 3c 9f 7a 48 3e 07 9e 0a 3e 91 b9 fb bc
       0.01164552 0.19578026 0.13536845 -0.030728133
0003e0 97 b1 6d 3c cd e1 7b 3d 39 4f 7a bd 4e 36 24 bc
       0.014507673 0.061494637 -0.06111071 -0.010022713
0003f0 bc a3 f9 bb 45 9a ec 3c 7b cf 74 3c 5e e7 0e 3d
       -0.0076183956 0.028882155 0.014942045 0.034888618

layers.1.mod_linear.bias f4 [128]
000000 4e b0 ea bd 80 92 a4 3d 94 0c 8d 3d 6e 7d 79 bd
       -0.11459409 0.08035755 0.06887165 -0.060910635
000010 64 39 d8 3d d3 07 07 bd 36 36 5f 3c 76 15 09 3d
       0.105578214 -0.032966446 0.013623765 0.033467732
000020 02 6c c8 bb 04 42 45 be 2b c6 cf 3d 90 bd 06 3e
       -0.006116391 -0.19263464 0.101452194 0.1315825
000030 6a a4 f0 bd 66 06 11 be a2 d7 a0 bd b0 3e 0e 3c
       -0.117501095 -0.14162597 -0.07853629 0.008681938
000040 31 cf a8 bc e1 4d 5e bd a1 f6 7e bd e4 cd 25 3d
       -0.020606609 -0.05427349 -0.062246922 0.040479556
000050 8c b7 a4 bd a8 50 d2 bc fd 68 43 3d 27 98 ce 39
       -0.08042821 -0.025673226 0.047707547 0.00039404744
000060 13 68 7c bc 36 aa 33 bd 04 7d 65 3d 9c 62 6d 3d
       -0.015405673 -0.043863498 0.056027427 0.05795537
000070 f0 9c 32 3b 6f 60 dc 3c ea b4 65 bd 95 a1 5a 3c
       0.0027254187 0.026901452 -0.056080736 0.013344188
000080 d1 c6 7e bd 51 60 96 3c e8 c2 34 be 67 9d 98 3d
       -0.062201325 0.018356474 -0.17652476 0.07451897
000090 db a8 f5 3c 47 16 a4 bd 53 0c ff bc fa 2f be 3c
       0.029987743 -0.080120616 -0.031133806 0.023216236
0000a0 32 b8 05 bd 6d 5b dc 3d f7 97 ba bd 12 a0 bb 3c
       -0.032646365 0.107596256 -0.09111016 0.022903476
0000b0 2f ce 7f 3d c6 b3 9d 3d 04 a0 73 bd 1c 53 4e bd
       0.06245249 0.07700305 -0.059478775 -0.050372228
0000c0 a4 fe 12 3d af 28 af bc c1 a3 25 3d 85 ef 87 3d
       0.035887375 -0.021381704 0.04043937 0.066374816
0000d0 c4 81 49 bb 72 a0 6d bd f3 b6 ba bc 73 57 53 bc
       -0.0030747512 -0.05801434 -0.022792315 -0.0128992675
0000e0 ef e8 1b bd 96 81 9f 3d 7c 70 e7 3d 9e f9 80 3d
       -0.03806394 0.077883884 0.113007516 0.06297611
0000f0 f8 04 9d 3c 95 04 41 3d f8 6e b4 3d 31 3c fc bc
       0.019167408 0.04712351 0.08810228 -0.03079042
000100 73 81 b8 3c 26 c5 7c bd 15 92 19 3e 9d 51 20 bd
       0.022522664 -0.061711453 0.14997132 -0.039140332
000110 0d 70 33 3d ac 39 57 3c ae d6 20 bd f9 24 94 3b
       0.04380803 0.013136309 -0.039267235 0.004521009
000120 ba 95 a0 bd 40 f1 89 bb 76 a7 63 bc de 7b 87 3d
       -0.07841058 -0.0042096674 -0.013894906 0.06615423
000130 02 44 ec 3c 26 fd 79 bd 9f 19 80 3d 8f 3b 53 bb
       0.028841022 -0.061032437 0.06254887 -0.0032231545
000140 eb 9c ea 3a 3e 95 92 3d 13 e8 a5 3c db a2 05 bd
       0.0017899548 0.07157372 0.020252263 -0.032626014
000150 08 c7 0e 3b 94 73 b7 bd ca 4f bc bd 41 32 89 bd
       0.0021786112 -0.08957592 -0.09194906 -0.06699038
000160 0c 64 b9 bd 65 16 e3 ba 41 bf 09 bc a8 79 be 3d
       -0.090522856 -0.00173254 -0.008407415 0.09300548
000170 81 5b ac bd f6 b1 54 bd 84 58 ac bd e0 12 54 bd
       -0.084158905 -0.05192753 -0.084153205 -0.051775813
000180 5e 9b cf 3b f6 fb 51 3d c3 de 48 3d 88 f2 79 bc
       0.00633566 0.05126568 0.049040567 -0.015255578
000190 fa fb 3b 3d 3c 38 d0 bd d2 23 27 3c a9 77 b5 bb
       0.0458946 -0.10166976 0.010201411 -0.0055379462
0001a0 73 9c e0 bb fe bf 8a 3d 6c 18 08 3e ff d7 9b 3d
       -0.0068545877 0.06774901 0.13290566 0.07609557
0001b0 d5 8c 63 bd 34 16 8f 3c 0e 3f 78 3d 3f 6b bb 3d
       -0.05555423 0.017466642 0.06060701 0.09151315
0001c0 ab 4e c9 3c 65 f6 c1 3d 6b 70 d6 bc 31 53 b1 bd
       0.024573645 0.09470824 -0.026176652 -0.086584456
0001d0 37 c2 47 3d 07 11 39 3c a8 f6 14 bc ed 42 07 bd
       0.048769202 0.011295564 -0.009092011 -0.03302281
0001e0 78 0c 5c 3d d6 9d 08 3d 2f 72 80 3d bc 12 53 3d
       0.05372283 0.03335365 0.06271779 0.05153154
0001f0 14 85 0c be 36 30 49 bd a4 02 a7 3d 89 be de 3d
       -0.1372264 -0.049118243 0.081548005 0.108761854

layers.1.mod_norm.weight f4 [128]
000000 01 c1 73 3f fc 95 68 3f 59 2d 64 3f 75 59 65 3f
       0.95216376 0.9085386 0.89131695 0.89589626
000010 f5 f1 74 3f 82 1a 7b 3f bc 8b 5a 3f d9 e0 6b 3f
       0.956817 0.9808732 0.8536947 0.92139965
000020 fa d2 5e 3f c9 dc 69 3f cd 91 73 3f 7f 51 5c 3f
       0.87040675 0.91352516 0.9514435 0.86061853
000030 cb 08 4d 3f 76 ab 87 3f c2 40 68 3f f1 4c 75 3f
       0.8009154 1.0599201 0.9072381 0.9582053
000040 1c bb 6a 3f 93 02 41 3f 87 70 6c 3f ec 4c 5e 3f
       0.91691756 0.7539455 0.92359203 0.86836123
000050 ae cb 85 3f b8 23 6f 3f 13 e1 7d 3f 54 06 65 3f
       1.0452783 0.9341388 0.9917156 0.8946278
000060 69 32 6a 3f 1a a8 48 3f ea 8c 6b 3f 1f 7e 66 3f
       0.9148317 0.783815 0.9201189 0.90036196
000070 b0 68 45 3f 9a 03 78 3f a0 a7 7a 3f 21 f8 6d 3f
       0.77112865 0.96880496 0.97912025 0.9295674
000080 1d 96 7e 3f c8 8c 66 3f 2f 68 47 3f 69 75 7d 3f
       0.99447805 0.90058565 0.77893347 0.9900728
000090 a8 9f 6e 3f 9d 9c 72 3f b7 5f 76 3f f5 a3 54 3f
       0.93212366 0.9477022 0.962398 0.8306268
0000a0 61 b5 55 3f 89 31 75 3f 3a 55 6e 3f 86 c5 6e 3f
       0.8347989 0.9577871 0.93098795 0.93270147
0000b0 9b b6 83 3f 82 fc 62 3f e9 5f 69 3f ac ff 8b 3f
       1.0290102 0.88666546 0.9116197 1.09374
0000c0 f4 79 81 3f 6a af 61 3f db da 5d 3f 13 fe 67 3f
       1.0115342 0.88158286 0.8666207 0.9062206
0000d0 28 7f 6a 3f e2 fd 69 3f 4a e5 66 3f ec 73 63 3f
       0.91600275 0.9140302 0.9019362 0.8884876
0000e0 06 d8 99 3f 3c 82 70 3f b7 53 5a 3f 9a 44 6d 3f
       1.201905 0.9394872 0.8528399 0.926828
0000f0 e7 46 80 3f 0c 50 5e 3f e8 31 55 3f a5 48 5d 3f
       1.0021638 0.8684089 0.83279276 0.8643897
000100 cf bd 6c 3f c6 d9 79 3f 1d be 81 3f d4 b5 5f 3f
       0.92477125 0.9759792 1.0136143 0.8738682
000110 f7 66 6f 3f ef e4 55 3f 1f 16 7c 3f e6 3a 67 3f
       0.93516487 0.8355245 0.98471254 0.90324247
000120 65 00 54 3f 62 9f 7c 3f e5 e1 66 3f 6f a0 69 3f
       0.828131 0.986807 0.9018844 0.9126043
000130 40 cc 5f 3f 5a aa 77 3f e2 19 63 3f 59 51 6f 3f
       0.87421036 0.9674431 0.8871137 0.934835
000140 c3 16 69 3f 8e e8 5a 3f b6 4e 5e 3f de a8 64 3f
       0.91050357 0.855111 0.86838853 0.8932017
000150 36 1e 7b 3f 5b c5 5e 3f 70 1b 72 3f 1d ee 69 3f
       0.98092973 0.8701989 0.94573116 0.9137896
000160 b0 e8 64 3f fb 4e 6e 3f 06 fd 61 3f 82 60 6b 3f
       0.8941755 0.93089265 0.8827671 0.91944134
000170 af 02 5a 3f 35 7a 5f 3f 72 06 6f 3f 3b ea 6d 3f
       0.85160345 0.8729585 0.9336921 0.9293553
000180 99 ab 69 3f 00 b4 61 3f 71 dd 54 3f 08 3d 67 3f
       0.9127746 0.88165283 0.8315039 0.903275
000190 87 01 80 3f 3f 51 59 3f 76 91 57 3f ec a4 6c 3f
       1.0000466 0.84889597 0.8420633 0.9243915
0001a0 51 63 63 3f 3e fa 69 3f 14 99 65 3f 6a f4 78 3f
       0.8882342 0.91397464 0.89686704 0.97247946
0001b0 db 09 80 3f e9 12 6b 3f f9 43 70 3f 52 d4 51 3f
       1.0003008 0.9182573 0.9385372 0.819646
0001c0 37 e5 6a 3f a4 21 56 3f 85 ae 66 3f af 16 61 3f
       0.91756004 0.8364508 0.90110046 0.8792524
0001d0 b5 f3 69 3f d1 17 56 3f 40 bb 67 3f df 1f 7d 3f
       0.9138749 0.8363009 0.90520096 0.98876756
0001e0 5d 61 60 3f 7f ee 60 3f 2e c4 83 3f b7 b5 79 3f
       0.87648565 0.87863916 1.0294244 0.975429
0001f0 15 55 6f 3f e2 9c 68 3f 17 57 72 3f ed 9e 72 3f
       0.934892 0.90864384 0.9466414 0.9477375

layers.1.mod_norm.bias f4 [128]
000000 02 21 c7 bd 51 39 b3 3c 8d 22 5b bc 35 ff 21 bd
       -0.097230926 0.021877917 -0.013374937 -0.039550025
000010 0f cc 65 ba 25 24 d1 bc e5 82 b1 bd b0 1f 1f 38
       -0.0008766064 -0.02552993 -0.08667544 3.7938065e-05
000020 c3 3b db bd 1b 83 11 be bc ab 80 3b a2 ba 58 bd
       -0.10704758 -0.14210169 0.0039267223 -0.052912362
000030 be c7 06 be 1f d3 c4 bc 45 8a c4 bd 0c be 61 bb
       -0.13162133 -0.024026452 -0.09596685 -0.0034445552
000040 01 8b 95 bd d9 2c 32 be 47 7b 93 bd c9 9e 6a bd
       -0.073019035 -0.1739992 -0.07201248 -0.057280336
000050 49 bb ed bb bd 16 29 bc 9d be 83 bc 0e ea 37 3d
       -0.007254992 -0.010320363 -0.016082102 0.044900946
000060 14 70 bc bd 7c fa 3b be 55 54 d6 bc f7 82 b9 bd
       -0.09201065 -0.18357271 -0.02616326 -0.09058183
000070 ff 1d 36 be e7 bf a7 ba 1b 6f 2d bd df 4a a3 bc
       -0.1778488 -0.001279828 -0.042342287 -0.019933162
000080 71 6d 45 3c 3f 30 7a bc e2 06 3c be c1 d7 9f 3b
       0.012050019 -0.015270292 -0.18362 0.004878015
000090 48 66 d2 3c 43 cb 2a bd dd 83 a2 3b eb 2c d1 bd
       0.025683537 -0.04169775 0.004959567 -0.102136455
0000a0 e6 f9 e9 bc 26 90 11 bc ad 2b 51 bd 43 78 9b bd
       -0.028561544 -0.008884465 -0.051067043 -0.075912975
0000b0 97 c3 7f 3c 52 94 30 bd d9 a2 a0 bd b8 16 0e 3d
       0.015610597 -0.0431102 -0.07843561 0.034689635
0000c0 09 a3 31 bc 07 fb c1 bd 07 ca 32 be be df 7d bd
       -0.010842093 -0.09471708 -0.1745988 -0.061980955
0000d0 d1 64 95 bd 6f 2f a2 bd 54 ba e2 bd 79 e9 02 be
       -0.0729462 -0.079192035 -0.110706955 -0.12784375
0000e0 9a e6 45 3d ef c2 85 bc cb db 87 3c 84 5e 88 bd
       0.048315622 -0.016328303 0.016584298 -0.066586524
0000f0 70 b1 c3 38 82 1b 16 bd 5b 40 70 bd fa 11 a9 bd
       9.331375e-05 -0.036647327 -0.058655124 -0.08255382
000100 a7 43 89 bd d6 d4 4e 3c 72 2b 95 3d c5 b2 b6 bd
       -0.06702357 0.012623986 0.07283677 -0.08920816
000110 63 d6 ae bd 99 5b 64 bd 04 61 19 bc 5f 71 32 bd
       -0.08536985 -0.055751417 -0.009361509 -0.04356515
000120 1c 96 66 be fd f4 30 bd a1 54 22 bd 71 33 a3 bd
       -0.225182 -0.04320239 -0.03963149 -0.07968796
000130 cb 0f c2 bd 56 df 82 3c 34 f5 b1 bd 9e 98 c9 bc
       -0.094756685 0.015975635 -0.08689347 -0.024608906
000140 26 1d b2 bd aa 98 95 bd ec 63 0f be 0b 4d 84 bd
       -0.08696966 -0.07304509 -0.14002961 -0.06460007
000150 4b d2 6d 3c a7 7c b4 bd dc 82 9a bd 7e ea 85 bd
       0.01451547 -0.08812838 -0.07544491 -0.065388665
000160 ec ac fe bc fe ec 23 bd aa 2d 92 bd b8 e6 68 bc
       -0.031088315 -0.040020935 -0.07137616 -0.014215164
000170 1c fc e3 bd 9c a2 94 bd 5d c6 9a bd 7d 40 6b bd
       -0.111320704 -0.07257578 -0.07557366 -0.057434548
000180 bb 80 5c bd b9 63 9e bd 54 af 57 be a0 96 94 bd
       -0.053833704 -0.07733864 -0.21062976 -0.07255292
000190 e5 5b 5b bd 7d e3 0b be c2 65 4a bb cc 99 a5 bd
       -0.053554434 -0.13660999 -0.0030883406 -0.08085975
0001a0 80 c1 a0 bd ed ff 05 bd 68 52 41 bd b3 45 ce bc
       -0.07849407 -0.032714773 -0.04719773 -0.02517972
0001b0 11 a2 f9 3b b1 b6 63 bd 7e ea d9 bc fa db d6 bd
       0.007618197 -0.05559415 -0.026601072 -0.10491176
0001c0 49 a0 7a bc 47 06 7e bd 79 7b 8f bd 80 50 b1 bd
       -0.015297004 -0.062017705 -0.070059724 -0.08657932
0001d0 ea 4e 16 bd 85 80 0e bb 65 aa 98 bd ea f8 51 bd
       -0.036696352 -0.0021744084 -0.07454375 -0.051262774
0001e0 8d ea bc bd a6 21 a1 bd 79 34 8b 3c f9 db 22 3c
       -0.092244245 -0.07867746 0.016992794 0.009940141
0001f0 c2 c8 fe bc 7c 6b 17 bd c2 9f 16 bd 8c 38 d3 bc
       -0.031101588 -0.03696774 -0.03677345 -0.0257838
